sales_prediction_model.pth (torch, 7176 bytes, 3 tensors)

fc1.weight f4 [64, 17]
000000 cb 3b 45 3b 2a b0 cc bf 25 ee fd bd 91 54 33 3e
       0.0030095454 -1.5991261 -0.12398938 0.17512728
000010 0b bb dd 3f 35 f3 e4 41 e8 91 05 c1 03 5f 41 3f
       1.7322706 28.618753 -8.348122 0.755356
000020 e9 69 58 41 cd f9 38 41 cc f6 46 3e 6a a6 bb 3e
       13.525857 11.5609865 0.19430083 0.366504
000030 b5 73 05 3e 8b 1b d0 3c b4 56 54 3f 55 18 f9 3d
       0.1303242 0.025403759 0.829448 0.12162844
000040 3c 63 94 bf 08 db df bd aa 82 0c 3e 80 b5 31 bb
       -1.1592784 -0.10930449 0.1372172 -0.002711624
000050 ea 94 53 be 18 a7 a9 bd 20 81 5b be 64 71 85 3d
       -0.20662275 -0.08283824 -0.21435976 0.06515768
000060 f2 b2 96 bd a0 6d 1c be c8 f4 e6 3d aa 16 bb bd
       -0.0735835 -0.15276194 0.11277157 -0.09135182
000070 92 62 61 be b8 9a 21 be 3b 72 f2 bd 60 ea ec bb
       -0.22010258 -0.15781677 -0.11838194 -0.007230088
000080 35 1c 69 be a8 c5 7b 3d a7 9b 46 3d a5 21 bb bf
       -0.22764666 0.061467797 0.048488285 -1.4619642
000090 14 03 94 bd e4 4d 68 3e 69 5a fc 3f 5c 5b e6 41
       -0.072271496 0.22685963 1.9715091 28.79461
0000a0 7e 64 03 c1 e0 85 54 3f c2 9d 58 41 71 58 39 41
       -8.212034 0.8301678 13.538515 11.584092
0000b0 1f 33 0e 3e 17 c9 dd 3e 81 6f 71 3e 3b c3 ea 3d
       0.13886689 0.43317482 0.23577692 0.114630185
0000c0 f7 ce 00 3f e7 4d 0e bd 72 fe 8b bf 6f 97 98 3d
       0.50315803 -0.034742262 -1.0937026 0.07450759
0000d0 f7 29 bf bf c1 23 89 bd e5 78 54 bd d4 35 d0 3f
       -1.4934682 -0.06696273 -0.051873107 1.6266427
0000e0 0f 47 e4 41 98 4c 04 c1 59 06 54 3f 5f 48 55 41
       28.534697 -8.2687 0.82822186 13.330169
0000f0 e2 3a 37 41 a1 09 4b 3e fd 0b 16 3d 29 46 94 3d
       11.451876 0.19827892 0.036632527 0.072399445
000100 93 75 b7 bd a7 77 ae 3e 21 9b 4f 3e 68 da 79 bf
       -0.089579724 0.34075662 0.2027402 -0.97598886
000110 5d 6e a6 be 31 3a 17 c0 f6 38 e5 3c 26 bd b4 3e
       -0.32506076 -2.3629267 0.027981263 0.3530056
000120 b6 0c fa 3f d0 64 e9 41 16 92 fc c0 e3 e4 8f 3f
       1.9535129 29.174225 -7.8928328 1.1241726
000130 1a 0b 68 41 6e 86 56 41 80 42 84 3e 7b 40 aa 3c
       14.50271 13.40782 0.25831985 0.0207827
000140 92 10 dd 3d 15 a2 1b 3e a4 86 ae 3f 16 19 0c be
       0.10794176 0.15198548 1.3634839 -0.13681445
000150 9e 0d ad bf be c3 4b be 79 69 52 3e 4f bf 3e be
       -1.3519781 -0.19898888 0.20548047 -0.18627666
000160 26 0d ad bd a4 03 a9 bd 58 25 87 bc f4 86 03 3e
       -0.084497735 -0.082526475 -0.0164973 0.1284445
000170 ac e9 7c bd 56 a2 47 3e 38 f7 26 be a8 46 a8 bd
       -0.061746284 0.1949552 -0.16305244 -0.082166016
000180 6d a5 66 be 66 80 3c be f5 8f 33 be a0 36 b9 3d
       -0.22524042 -0.18408355 -0.17535384 0.09043622
000190 57 a0 0e 3e 42 75 fa bd 31 08 2b 3e 9b b2 dc bf
       0.13928352 -0.122293964 0.16702344 -1.7242006
0001a0 49 eb 4c 3e 4d 61 56 be 1d 9b bf 3f 91 92 e5 41
       0.20011629 -0.20935555 1.4969212 28.696566
0001b0 ff b0 07 c1 58 33 77 3f 93 46 5a 41 f6 c2 34 41
       -8.480712 0.9656272 13.64223 11.297598
0001c0 b0 fb f8 3d 3d 74 bf 3e 64 d9 1a 3e 38 28 47 3e
       0.121573806 0.3739337 0.1512199 0.19448936
0001d0 b7 80 cb 3e fc fd 4a 3d 5c 84 6a bf 73 13 98 3d
       0.3974664 0.049558625 -0.91608214 0.07425585
0001e0 2d 77 05 c0 69 11 c0 bc 26 2d ef 3d e7 8b 0f 40
       -2.085399 -0.023445802 0.11678533 2.242914
0001f0 38 53 eb 41 c1 74 18 c1 f6 f0 90 3f cf 78 55 41
       29.415634 -9.528504 1.1323535 13.341994
000200 83 36 3c 41 a9 b7 64 3e c6 d9 ce bd 4f 5e 88 3c
       11.763309 0.22335686 -0.10100131 0.016646532
000210 25 8a 07 3e f7 32 90 3f 40 03 e1 bd 48 38 15 bf
       0.13236292 1.1265553 -0.10986948 -0.58289003
000220 fc 80 1a bf 87 c0 c6 c0 eb 15 65 3e 36 5a 28 3f
       -0.60353065 -6.211002 0.22371642 0.6576265
000230 6a 0d 80 bd 85 6d 1f 41 5e 05 91 3e a5 a0 8e 3f
       -0.062525585 9.964238 0.28324407 1.1142775
000240 54 de 57 40 c2 9f 22 3f 04 ca 2d bf 83 a6 44 c0
       3.3729448 0.6352502 -0.67886376 -3.072663
000250 34 3c 25 be 45 b6 77 be 94 70 ff c0 27 20 4d 3c
       -0.16136247 -0.24190624 -7.9824924 0.012519873
000260 74 a6 1f c1 37 8b 36 3e 13 5d e6 bf a9 8e 2e 3e
       -9.978138 0.17826544 -1.7997154 0.17046608
000270 c8 f6 80 3e e9 8d 0c 40 77 cb e7 41 bf f4 07 c1
       0.2518828 2.1961615 28.974348 -8.497252
000280 a1 ca 9c 3f 5a 46 59 41 bd d0 3b 41 52 1c 22 3d
       1.2249337 13.579676 11.7384615 0.03957779
000290 35 f8 ae 3e 69 e7 94 3d 6c c9 33 3e 18 b9 7b 3f
       0.34173742 0.072707005 0.17557305 0.98329306
0002a0 15 27 84 3d 86 b3 91 bf 65 99 be bd ee 22 b8 bf
       0.06452767 -1.1382911 -0.093066014 -1.438566
0002b0 89 d8 26 bd 4b 90 8c 3e 33 1f 3f 40 21 ff 67 c1
       -0.040733848 0.27453837 2.9862792 -14.499787
0002c0 e6 c5 87 c0 7b 69 93 3f 2d 05 43 c0 24 d1 ad c0
       -4.2429075 1.1516565 -3.047191 -5.43178
0002d0 a9 10 73 3d 07 3c 99 bf c5 3c 27 3d 37 3b 8e be
       0.05934206 -1.1971444 0.04082944 -0.27779552
0002e0 2d be 03 c1 ba 77 b6 be cc 1e 14 c1 1b 86 46 3e
       -8.23393 -0.3563822 -9.257519 0.19387095
0002f0 ab 4b c3 bf ee bb a4 3d 1d 01 d6 bd 72 e7 f0 3f
       -1.5257467 0.08043657 -0.10449431 1.8820632
000300 c8 5a e4 41 c9 70 02 c1 60 1f 70 3f 30 f5 58 41
       28.544327 -8.152535 0.93797874 13.55986
000310 f6 87 38 41 5b a7 5b 3e e2 07 ca 3e 48 5f 81 3e
       11.533194 0.2145056 0.3945914 0.25268006
000320 da 74 8a bd c8 a0 09 3f 35 a5 53 3e 61 8a 9e bf
       -0.06760569 0.5376096 0.2066849 -1.238598
000330 7c 20 4c 3e 76 58 c8 be 29 5c c2 bc 91 6a 43 3e
       0.19934267 -0.3912999 -0.023725586 0.1908362
000340 f5 86 a4 bf 35 0d c0 c1 dc 80 db 40 0b 99 0e 3e
       -1.2853686 -24.006449 6.85948 0.13925569
000350 79 a5 ce c0 fd 7c 59 c0 4d 97 fd 3e 37 58 99 40
       -6.4576993 -3.3982537 0.49529496 4.7920184
000360 03 3f bd be 16 a8 86 be 26 a9 0d 40 71 e9 0c be
       -0.36962137 -0.26300114 2.213449 -0.13760926
000370 11 f0 20 c0 04 d9 a1 bd 84 f6 9f bd 80 47 38 bc
       -2.5146525 -0.079027206 -0.07810691 -0.011247516
000380 99 b7 4c be d8 46 72 3d 3c 3f 5a be bc 9d 2b 3e
       -0.19991912 0.059149593 -0.21313184 0.1675939
000390 c0 7c 3d 3e c0 33 4c bb 66 30 2d 3e 00 2d 46 3c
       0.1850462 -0.0031158775 0.16912994 0.01209569
0003a0 02 49 63 3e 0b 65 06 be 46 35 71 be a0 b0 31 be
       0.22195819 -0.13124482 -0.23555478 -0.17352533
0003b0 13 98 5b be e0 7b 0e 3e 5c f3 14 bd e4 cb df 3d
       -0.2144473 0.13914442 -0.036364898 0.10927561
0003c0 f2 7c 0a 3e 54 cb 73 be cf 15 27 be 00 25 59 3a
       0.13524225 -0.23808032 -0.16316913 0.00082834065
0003d0 54 ee a8 3d 60 46 c1 3d aa ff 56 be 66 c7 91 bd
       0.082485825 0.09437251 -0.20995966 -0.0711811
0003e0 6d 1a 2b be 60 82 2f 3d dc 82 81 3d 60 34 95 bd
       -0.167093 0.042848945 0.063237876 -0.0728538
0003f0 f8 ba 67 3e bc e3 73 be f0 01 4f bc fb 8d 09 be
       0.22629917 -0.23817343 -0.012634739 -0.13433068

fc1.bias f4 [64]
000000 fa 01 de 3d 00 70 6f 3e e6 48 42 3e 65 63 3b 3e
       0.10840221 0.23382568 0.18973121 0.18299635
000010 4d bc 55 3e 85 8d 88 be 0b ee ec 3d 18 22 1d 3d
       0.20872612 -0.2667047 0.115688406 0.038362592
000020 b7 cd 40 3e f0 8e bc 3d 62 80 15 be 4d 75 21 be
       0.18828474 0.09206951 -0.14599755 -0.15767403
000030 11 32 07 be 75 18 65 be 92 14 f1 bd 2a 9f 35 3e
       -0.13202693 -0.22372611 -0.117715016 0.17736498
000040 10 5a 0b 3e c8 13 1b 3e 70 e5 ff 3d 04 c9 1b bd
       0.13608575 0.15144265 0.124949336 -0.0380335
000050 2c d6 29 be 96 e9 38 3e 92 2d 69 3e 3a bc b9 3d
       -0.16585606 0.18057856 0.2277129 0.090691045
000060 7e f0 aa be 42 cb 3f be c0 cb 2e 3e 88 55 58 be
       -0.33386606 -0.1872988 0.17069912 -0.21126378
000070 ab e7 bc bd 58 4d 2d 3e 07 9e dd 3c 41 30 7c 3e
       -0.09223875 0.16924036 0.027052892 0.24627782
000080 ca 47 43 be 32 0e c0 3e c7 c3 97 3d 42 21 d3 3d
       -0.19070354 0.3751083 0.074103884 0.10309078
000090 a9 64 da 3e f6 94 59 3e 0d b7 2b be 57 de 87 3e
       0.42654923 0.2124823 -0.16769047 0.2653682
0000a0 17 66 22 be 2e 7e 8f 3d 52 4c ad be 26 be 94 3e
       -0.15859257 0.07006489 -0.3384729 0.29051322
0000b0 f9 b2 b8 3d ca 49 e8 be 22 a8 63 3e f6 15 88 3d
       0.09018511 -0.45368797 0.22232106 0.06644814
0000c0 d3 67 fe 3e 3e ee 7d bd c4 4a e8 3c c4 07 39 3d
       0.49688587 -0.061994784 0.028355964 0.04517342
0000d0 15 c6 21 be 5c b0 2d 3e e1 4d 1d 3e ba 21 ae 3d
       -0.15798219 0.16961807 0.1536174 0.085025266
0000e0 e4 3b c5 3d 4e f7 a1 3e fc d9 f9 3d a9 65 70 be
       0.09630564 0.3163399 0.1219978 -0.2347628
0000f0 f2 9c 73 bc 31 18 14 3e 18 eb 2c 3e 68 bc c1 be
       -0.014868962 0.14462353 0.16886556 -0.37839055

fc2.weight f4 [1, 64]
000000 67 3e b4 3e dc 0c a7 3d 43 eb ee 3e 0e 6e c1 3e
       0.3520386 0.081567496 0.46663865 0.37779278
000010 4b 0c 10 3f 0c 0d f1 bb 81 62 b5 3e e6 51 c6 3e
       0.5626876 -0.0073562916 0.35426715 0.3873436
000020 b6 65 82 40 21 f4 e7 3e eb 98 74 bf 01 a9 7c 3e
       4.074916 0.45303443 -0.95545834 0.24673845
000030 52 51 e9 be e4 8c 3a bd 5e f6 bc bd 47 7c 2e 3f
       -0.45569855 -0.04554452 -0.09226678 0.6815838
000040 fc f0 02 3f cc b9 31 bd d6 28 98 3d 59 74 8b 3e
       0.5114896 -0.04339008 0.07429664 0.27237204
000050 7e 28 46 40 5b c2 0c 3f 73 59 36 bf cb ed 92 3e
       3.0962214 0.5498406 -0.7123024 0.28697047
000060 79 d1 95 40 88 84 bc 3e 3d f2 5a bf f4 b9 1b bd
       4.6818204 0.36819863 -0.85525876 -0.038019136
000070 a9 f3 ac 3e 85 d4 f0 3e cd a9 ba 3e fa d2 ba 3e
       0.33779648 0.4703714 0.36457673 0.36489087
000080 c3 63 3f 3f d2 fc de bf 23 2b 02 3f d2 07 e2 3f
       0.747616 -1.7420905 0.5084707 1.7658637
000090 48 ee 89 bf 86 57 d9 3e 2c c5 41 bd f4 8a c2 3e
       -1.0775843 0.42449588 -0.04730718 0.37996638
0000a0 6c 88 2e 3f 0a 19 ed 3e 34 ea 0c 3f 9a 37 5b 3f
       0.68176913 0.46308166 0.55044866 0.85631716
0000b0 76 b2 77 3d 3f 46 75 3f b0 29 62 3c 2d 7a 34 bf
       0.060472928 0.9581031 0.013803884 -0.70498925
0000c0 46 2a 34 bf c9 db ff 3e e5 17 6d 3f 2b bd b0 3e
       -0.70377004 0.4997237 0.92614585 0.34519324
0000d0 91 48 2e 3f af 26 10 3f 1b 40 50 3f c0 cc 7c 3f
       0.6807948 0.56309026 0.8134782 0.98749924
0000e0 d8 df 09 3f b5 23 32 bf 7c 06 e0 3d 7f 88 75 bf
       0.53857183 -0.69585735 0.10938737 -0.959114
0000f0 74 ab 1b bf 66 e7 8c bd 03 c0 03 3f dd b2 e8 be
       -0.6080849 -0.06880073 0.5146486 -0.45448962
