sales_prediction_model.pth (torch, 7176 bytes, 3 tensors)

fc1.weight f4 [64, 17]
00000000: dda3 983e 1066 5dc0 bce7 113c 976b 12bf
00000010: ebda 19c2 dbc5 8942 9601 9d40 788a 82c0
00000020: 09a7 de41 1155 2e43 4540 42be c992 4941
00000030: c814 d7be 809d fc3e d6fa b7c0 b020 263f
00000040: 5332 1442 759c 8b3e a6a0 89bf f3bb b73a
00000050: 8c69 dcbe 7cd3 8740 72b2 0f42 2a57 cdc0
00000060: 8818 e13f 6bb8 3741 22b5 4342 3ef2 e83f
00000070: 0a9b 1c42 f6ce 57be 7f33 223f 5848 9840
00000080: 4704 2dbd a6ad 1142 8308 383f bdc3 9ec1
00000090: ee94 cdbb 8f5d fbbf 6e15 3842 5e06 d642
000000a0: f879 76c2 7109 4040 e782 7442 7e58 3e42
000000b0: dbd4 3ebf 5ce4 0ac1 bcd0 b93f 276d 51bd
000000c0: 8432 2cc0 2ad2 54be 5149 32c2 1b7a a2bd
000000d0: 66ba 94c0 2128 813c d2a6 f23e edc8 6cc1
000000e0: 6310 1742 f29f 3841 4209 87c1 1fcb 2342
000000f0: 5716 05c2 6442 fa3d c42b 9cc2 00bc d6be
00000100: 63eb d53e 6bbf 90c1 2751 6d3e 0701 88be
00000110: 3e12 a6bf e3b1 53c0 d531 9bbc 0ad3 253e
00000120: d65e 8941 c70e 84c1 a79f 65c1 4144 8640
00000130: 57e9 1ec3 1dad 8ec1 2ff5 18bf 5146 0a41
00000140: d627 87be 1254 593f 6b32 ddc0 2c9a 963f
00000150: 8a1d 1dc2 81fc debf 6c62 a340 749b 8fbb
00000160: 0b89 4c3f 2a68 1e40 f43c 3242 77ff 9dc1
00000170: 5381 d5bf eb49 d540 a97d 5c41 6308 e03e
00000180: ec52 16c2 4863 f73e 2d7c bc3f 913b 82c1
00000190: bdf8 963e e0e7 9dc2 7cfe a33d d47e 9ebd
000001a0: 5cfc 13be 6ea0 6bbe f88c 2fbd 085d 6abe
000001b0: 68bc 753d 70bf 7ebd 000a e9bc 8639 24be
000001c0: 00c6 333a 5c84 e93d 67f1 51be f282 543e
000001d0: c044 453c 4e83 1c3e b04d 343e a0ff 44c0
000001e0: 68d9 0c41 8eaf f43b d802 153e 385e 3bc1
000001f0: f4c2 a4c0 1983 9241 9189 d6c0 bbfa e342
00000200: 7bb4 6cc2 715e 1b3f 4fee 8b41 7344 423f
00000210: 3373 483d 94b9 4441 921c 01bf abf4 1842
00000220: 0a13 743c 3c04 273e be0f 63bd 00dd d33d
00000230: c1e2 88be 68f7 343e 6bef 29be 82ac acbd
00000240: 44dd 18be 63b0 87bd 3b29 27bd c72f 783d
00000250: f7fc 693d 3561 993c a350 043e 82e6 82be
00000260: 73c3 533e e730 b1bf e55e 5f41 c1be 6d3c
00000270: bce0 2cbf f20e ce3f 89c7 fe41 a454 4041
00000280: 8c69 fc41 acf8 6142 4c85 0c43 d722 1e3f
00000290: d2cc 7140 13d6 323f ee67 893f 6fc2 6ac0
000002a0: 6351 2c3e a3d7 5442 3e71 c3bc 1e41 dec0
000002b0: 920e 423d a00c a3bf 73e2 8441 0ceb 0342
000002c0: e598 efc1 3c2f 1cbf f825 7742 8c20 2343
000002d0: aa86 3a3e e604 28c1 94e9 0bbf 7f82 b0be
000002e0: 9100 9f41 f21c b13e 9b43 7942 e236 b0bd
000002f0: 8862 0bbe f4e6 093e e0f9 a53b 806b f6bb
00000300: ba3b a1bd 8ebd 043e 964c 063e bad2 123e
00000310: 5ee1 4a3e 5881 3cbe 3e37 09be 12e3 eebd
00000320: 90a3 123d 58ba 263d e6e8 74be 9901 77be
00000330: bf21 65c0 0780 a8c1 44d1 8abc d67a a83f
00000340: 6eef 3c41 2e00 6242 4ff6 98c2 d053 d9bf
00000350: 1426 4342 1e8f 0043 1c4b 6cbc d979 7cc1
00000360: 132b c83e 018b bc3e a766 3ec1 97d0 9a3d
00000370: 6bdf c4c2 d09f 023f 6453 b341 dd7d 853d
00000380: 37e5 9a3f 5214 d740 20ef b7c1 0d34 a5c1
00000390: 4fa9 9f3f d913 0643 69eb d342 3dd2 8e3c
000003a0: 6e13 52c1 9b5b 86bf fe04 ed3e 2afb 6cc0
000003b0: c83c c63e 3ffe b841 7fb9 9bbe 765b 8740
000003c0: 4664 13bc cd49 243e 6ab8 63c0 d04f febf
000003d0: 7d8d ab3d 29a5 acc0 ba90 af42 0563 b542
000003e0: 2384 14bf 144f 59c1 bdb3 7cbf d1b3 3f3f
000003f0: c9a3 8141 0b7e 953f 2052 45c2 9421 69be
0.29812518 -3.4593544 0.008905347 -0.5719542 -38.463787 68.88644 4.9064436 -4.079403
27.83156 174.33229 -0.1896983 12.598336 -0.42008042 0.49338913 -5.7493696 0.6489363
37.049145 0.27267805 -1.0752151 0.0014017805 -0.43049276 4.244566 35.924263 -6.41689
1.7585611 11.482524 48.926888 1.8198926 39.151405 -0.21075043 0.63359827 4.758831
-0.042240407 36.41958 0.7188799 -19.845575 -0.0062738573 -1.9637927 46.020927 107.012436
-61.61911 3.0005763 61.127834 47.58642 -0.7454354 -8.680752 1.4516826 -0.051129486
-2.6905832 -0.20783296 -44.571598 -0.07933446 -4.6477537 0.015766205 0.473929 -14.799054
37.766003 11.539049 -16.87952 40.94836 -33.271816 0.12219694 -78.08548 -0.41940308
0.41781148 -18.093466 0.23175488 -0.26563284 -1.2974317 -3.3077323 -0.01894466 0.16193786
17.171307 -16.507215 -14.351478 4.195832 -158.91148 -17.834528 -0.5974912 8.642167
-0.2639758 0.84893906 -6.9124045 1.17658 -39.278847 -1.7420808 5.1057644 -0.004382545
0.7989661 2.4751077 44.559525 -19.749739 -1.6680092 6.665273 13.780679 0.437564
-37.58098 0.48317933 1.4725395 -16.279085 0.29486647 -78.95288 0.080075234 -0.07739034
-0.14451736 -0.23010418 -0.042859048 -0.22887051 0.05999413 -0.062194288 -0.028447151 -0.16037568
0.00068578124 0.11402199 -0.20502244 0.20753077 0.012040317 0.15284464 0.1760776 -3.078102
8.803078 0.007467217 0.14551866 -11.710503 -5.148798 18.314013 -6.704293 113.98971
-59.17625 0.6069098 17.491362 0.75885695 0.048937988 12.295307 -0.5043422 38.238934
0.014897117 0.16310209 -0.055434935 0.10344887 -0.267355 0.17672503 -0.16595237 -0.08431341
-0.14928156 -0.0662544 -0.040810805 0.06059244 0.05712601 0.01872311 0.12921385 -0.25566489
0.20680027 -1.3843049 13.960668 0.014510811 -0.6753042 1.6098311 31.84743 12.020664
31.551537 56.492844 140.52069 0.6177191 3.7781262 0.698579 1.0734842 -3.6681173
0.16827922 53.210583 -0.023857709 -6.945449 0.047377177 -1.2738228 16.61057 32.979538
-29.949656 -0.61009574 61.78708 163.12714 0.18215433 -10.501196 -0.54653287 -0.3447456
19.875277 0.34592396 62.31602 -0.08604218 -0.13611805 0.13467008 0.005065188 -0.007520139
-0.0787272 0.12962934 0.13115153 0.14338198 0.19812533 -0.18408716 -0.1339998 -0.11664404
0.035800517 0.040705055 -0.23916969 -0.24121703 -3.5801847 -21.062513 -0.016945489 1.3162487
11.8084545 56.500175 -76.48107 -1.6978703 48.787186 128.55905 -0.014422204 -15.779748
0.39095363 0.36824802 -11.900062 0.075593166 -98.43636 0.51025105 22.415718 0.06518147
1.2101201 6.7212305 -22.99176 -20.650415 1.2473544 134.07753 105.959785 0.017434234
-13.129744 -1.0496706 0.4629287 -3.7028298 0.38718247 23.124144 -0.3041496 4.2299147
-0.008996075 0.16043778 -3.5581307 -1.9868107 0.08376596 -5.395161 87.78267 90.6934
-0.58014125 -13.581806 -0.9871176 0.74883753 16.204973 1.167909 -49.3302 -0.22766715

fc1.bias f4 [64]
00000000: d2eb 3a3f e0d6 fa3e ca36 3cbe 0eab 053f
00000010: d81e 933f fbda 823f 7030 29bd 3522 aa3d
00000020: 5b23 673c 2293 883f 908a dbbe 50ec 78bc
00000030: 525b b53e fa01 0c3f b147 5e3f ff9d 083f
00000040: fcf0 34bf d0fe b13d 4628 333f f70c ab3e
00000050: 6792 33bf 830c f6bf 7411 2b3f 809b 2e3e
00000060: 12a0 063f d40d 21bf c642 c03f 2a6f e9bd
00000070: b311 7f3e ab25 43bf 3096 6e3d d545 863f
00000080: 72f7 59bf 2212 2b3e 7bf7 ac3e 2f43 593f
00000090: 8abe 58be 9ec6 633f c073 eabb e6f2 11be
000000a0: c080 963d 8c64 d3bf 8d3f 3d3d 2446 c13c
000000b0: adc1 3b3f ffc7 bf3f 5399 f73e 36ae e13e
000000c0: c7e9 8dbf 238d 1ebf e746 dabf df60 b0bf
000000d0: cee3 4bbf ccdd d03d 20c6 0abd 98a8 6abd
000000e0: dd02 45bf 4460 83be 064a f8bd 4815 4c3e
000000f0: 944e 95be 2878 2fbf 8095 8f3f 7545 ea3e
0.73016083 0.48992062 -0.18380275 0.52214134 1.1493788 1.0223078 -0.04130596 0.08307306
0.0141075505 1.0669901 -0.42879152 -0.01519306 0.35421234 0.54690516 0.8682814 0.5336608
-0.7068021 0.0869118 0.6998333 0.3340833 -0.7014527 -1.9222568 0.66823506 0.17051506
0.52588 -0.62911725 1.5020378 -0.11398156 0.24909095 -0.7622935 0.0582487 1.0490061
-0.85143197 0.16706136 0.33782563 0.8486814 -0.21166435 0.8897494 -0.0071549118 -0.14252815
0.07348776 -1.651506 0.046203185 0.023593016 0.733424 1.4982909 0.48359165 0.44078225
-1.1086968 -0.6193411 -1.7052888 -1.3779563 -0.7964448 0.101985544 -0.033880353 -0.05728969
-0.76957494 -0.25659382 -0.12123494 0.19929993 -0.29161513 -0.6854272 1.1217499 0.45756117

fc2.weight f4 [1, 64]
00000000: edff 4740 da31 fd3f bee0 02c0 48e6 6e40
00000010: bbb4 5b40 935a b73f e0c1 59bd 9350 d13f
00000020: 7d00 94bd d563 963f a76d 87bf b098 243c
00000030: 7b76 ab3f 247a 1c40 3fad 8a40 7c26 d63f
00000040: f632 8740 f8f0 b7bc d57d 87bf 060d 17c0
00000050: 4fe8 49c0 5300 35c0 0c9e 72bf 4383 4140
00000060: 6a01 343f 2afb cebf 64d6 1f40 1f5d f2bc
00000070: 00dc 3f41 aedd b4bf 8c8e 3bbd 794c cb3f
00000080: 34c1 2340 3c11 a5bd 0a47 4740 93f2 24c0
00000090: d3f2 0bbd 9559 2540 e0bb 163d 1666 8c3d
000000a0: 68c7 8d3c 5e65 69c0 7ed5 3140 0ec3 a4bd
000000b0: 6547 b540 f87d 9c3e 2363 3a40 c10b 4fc0
000000c0: acfa d5c0 7b19 10c0 0c67 27c0 3042 9fc0
000000d0: 2268 09c0 b4fd cd3d 3018 c9bd 661d b13d
000000e0: 2c43 22bf 032b 49c0 009a 393d 68b0 6dc0
000000f0: f163 dd3c c4e7 b7bf 71fe e83f 5391 d63f
3.1249955 1.9780838 -2.0449672 3.7328053 3.432906 1.4324516 -0.05316341 1.6352714
-0.07226656 1.1749216 -1.0580338 0.010046169 1.3395532 2.4449549 4.333648 1.6730494
4.224971 -0.02245377 -1.0585276 -2.36017 -3.154804 -2.8281448 -0.9477241 3.0236366
0.7031466 -1.6170399 2.4974604 -0.02958542 11.991211 -1.4130151 -0.04579024 1.5882713
2.5586672 -0.08059928 3.1137109 -2.5773056 -0.034167122 2.5835927 0.036800265 0.06855409
0.017306998 -3.646812 2.7786555 -0.08045016 5.664965 0.30564857 2.9123008 -3.2350924
-6.6868496 -2.2515552 -2.6156645 -4.9768295 -2.1469808 0.10058156 -0.098190665 0.086481854
-0.63383746 -3.1432502 0.04531288 -3.713892 0.027025195 -1.4367604 1.8202649 1.67631
